Gesture Identification Using Arduino & TinyML/Data_Collection_Code/gesture_model.tflite (tflite, 3684 bytes, 4 tensors)

sequential/dense/BiasAdd/ReadVariableOp f4 [32]
0	0xbdb2d2f7	-0.087316446
1	0x3e2812b4	0.16413385
2	0xbd869d04	-0.06572917
3	0x3e2bd021	0.16778614
4	0x3d7875b1	0.060659114
5	0x3e1b13d0	0.15144277
6	0xbdcb1c54	-0.099175125
7	0xbe19c793	-0.15017538
8	0xbe1ed773	-0.15511875
9	0x3e362e8d	0.17791195
10	0xbdae5fca	-0.08514364
11	0x3d993074	0.07479945
12	0xbdb2dce3	-0.08733537
13	0x3d82edd3	0.063930176
14	0x3d6c4f33	0.057692718
15	0xbe0a1b3b	-0.1348695
16	0xbe029918	-0.12753713
17	0x3dbc899f	0.09205937
18	0x3c3d955f	0.011571257
19	0xbdf5ba74	-0.11998454
20	0x3e1bbfad	0.15209837
21	0xbe0d050e	-0.1377146
22	0x3db1abb6	0.086753294
23	0xbdff9855	-0.12480227
24	0xbd1b2ecf	-0.037886437
25	0x3db7f0ce	0.08981477
26	0x3daf96cd	0.08573685
27	0x3da5faac	0.081044525
28	0xbd41bf31	-0.047301475
29	0x3e121cf8	0.14268863
30	0x3e5d46f6	0.216091
31	0xbcabfa41	-0.020993354

sequential/dense_1/BiasAdd/ReadVariableOp f4 [3]
0	0xbdd0ad63	-0.10189321
1	0xbdc6996d	-0.096972324
2	0x3e191991	0.14951159

sequential/dense/MatMul f4 [32, 9]
0	0xbd64ba50	-0.055841744
1	0x3d9b8df2	0.07595433
2	0x3ddb5851	0.107102044
3	0xbe47c9e4	-0.19510609
4	0x3db5fc26	0.08885984
5	0xbe919a9b	-0.28438267
6	0xbeaa8fbd	-0.3331279
7	0xbcdb892c	-0.026798807
8	0xbe0f275f	-0.13979863
9	0x3e1b80b4	0.15185815
10	0xbea26afc	-0.31722248
11	0x3e89321a	0.26796037
12	0xbc0c73c8	-0.008572526
13	0x3e8d2a46	0.27571315
14	0x3eaa3708	0.3324511
15	0xbc06f5e4	-0.008237336
16	0x3e8574c0	0.26065636
17	0x3dd59324	0.104284555
18	0x3e3a65c7	0.18202887
19	0x3dc01a61	0.093800314
20	0xbecf308a	-0.4046672
21	0x3e4c223c	0.19934934
22	0xbe81e49e	-0.25369734
23	0x3ca6d7d2	0.020366583
24	0xbe17744f	-0.14790462
25	0xbdac1414	-0.08402267
26	0xbe11682f	-0.14199899
27	0x3e397570	0.18111205
28	0x3dad5b10	0.084646344
29	0x3e1193cd	0.14216538
30	0xbe2c06f4	-0.16799527
31	0x3dda08a5	0.1064618
32	0xbc630c01	-0.013857842
33	0xbe175de0	-0.14781904
34	0x3d2f159c	0.042745218
35	0xbed5b2e6	-0.4173805
36	0xbe4cc2fb	-0.19996254
37	0xbb64cab6	-0.0034910864
38	0x3cd13501	0.02553797
39	0xbe9a97c1	-0.30193904
40	0x3eaca4c4	0.33719456
41	0x3e89000d	0.2675785
42	0xbded426c	-0.115849346
43	0xbc9cc031	-0.019134613
44	0xbe2f353b	-0.1711015
45	0x3efecedd	0.497672
46	0x3e668a65	0.22513731
47	0xbda98672	-0.082775965
48	0x3ebf6f6f	0.37389705
49	0xbe8d116d	-0.27552357
50	0xbd7920a1	-0.060822133
51	0x3ef2c3b3	0.47414932
52	0xbdda1d3e	-0.10650109
53	0xbde63849	-0.11241204
54	0x3d2843b1	0.04108018
55	0xbdee243e	-0.116280064
56	0x3ec6a2e6	0.38796157
57	0xbeaa05d8	-0.33207583
58	0xbeda76ef	-0.42668864
59	0xbe5b9834	-0.2144478
60	0x3e85aeb9	0.26109865
61	0x3dabf1f4	0.08395758
62	0x3e84afca	0.25915366
63	0xbead1d0d	-0.33811226
64	0xbd996aae	-0.07491051
65	0x3e9c130f	0.3048329
66	0x3c16e15e	0.009209005
67	0x3e88ef40	0.26745033
68	0x3d560f8d	0.052260924
69	0x3e392883	0.1808186
70	0x3e84a2a8	0.25905347
71	0x3e56583d	0.20932098
72	0xbda87a5b	-0.082264625
73	0xbbb5edce	-0.00555203
74	0xbeaa87a9	-0.33306625
75	0xbcf9cdf3	-0.030493712
76	0x3e9728de	0.29523367
77	0x3d9f6a5f	0.077839606
78	0xbea5cef4	-0.32384455
79	0x3d8947be	0.06703137
80	0xbe28c0d6	-0.16479811
81	0x3eadd28c	0.33949697
82	0x3e6caf4e	0.23113748
83	0x3d5638f1	0.052300397
84	0xbea8976c	-0.32928026
85	0x3e828215	0.2548987
86	0xbe21175c	-0.15731567
87	0xbd0cd321	-0.034381036
88	0x3e7c759e	0.24654242
89	0xbc36bc78	-0.011153333
90	0xbe935c9d	-0.28781596
91	0xbd07de87	-0.033171203
92	0xbe83fcde	-0.2577886
93	0xbeb6eaf9	-0.35726145
94	0xbdb8039f	-0.08985066
95	0xbe760a6b	-0.24027412
96	0xbe5d02ff	-0.21583174
97	0x3da37048	0.079804
98	0xbd8ca56e	-0.06867491
99	0x3e8e6aa2	0.2781573
100	0x3eb2532b	0.34829077
101	0xbd467ebc	-0.048460707
102	0xbde45a5d	-0.11150048
103	0x3e9802fd	0.2968978
104	0x3e9b7164	0.30359948
105	0xbea8eb2a	-0.32991916
106	0xbeb93846	-0.36175746
107	0xbeb44218	-0.35206676
108	0xbec03b57	-0.37545273
109	0xbeb82093	-0.35962352
110	0x3d31954c	0.04335527
111	0x3d697db2	0.057004638
112	0xbea5283b	-0.32257256
113	0xbe83eed8	-0.2576816
114	0x3e5b1c41	0.21397497
115	0xbd1bfaec	-0.038081095
116	0x3d8ae400	0.06781769
117	0xbe822083	-0.2541543
118	0x3e93562b	0.28776678
119	0xbe9f1828	-0.31073117
120	0x3cb79765	0.022411058
121	0x3ebdaa19	0.37043837
122	0x3d8394fd	0.06424902
123	0xbe66bb25	-0.22532327
124	0x3e773adb	0.24143545
125	0x3e903e46	0.2817251
126	0xbe0cfba4	-0.13767868
127	0xbe877426	-0.26455802
128	0x3d36d965	0.044640917
129	0xbde229d9	-0.11043138
130	0xbe56ccbf	-0.20976542
131	0xbe86b6bd	-0.26311293
132	0xbbcf6033	-0.0063286065
133	0xbe8380c9	-0.25684193
134	0xbeb826d9	-0.35967138
135	0xbe97dc17	-0.29660103
136	0x3dd1b712	0.10239996
137	0x3e87ceb6	0.26524895
138	0x3d59033c	0.0529816
139	0x3e0a499b	0.13504641
140	0x3eb9aed7	0.36266205
141	0x3d505b05	0.050868053
142	0xbe922d9c	-0.28550422
143	0xbce08356	-0.027406376
144	0xbe2c4604	-0.16823584
145	0xbd1e048e	-0.038578562
146	0xbd2259e5	-0.03963651
147	0xbe8fe2bd	-0.28102675
148	0x3eadc4a4	0.33939087
149	0xbe29ea7d	-0.16593356
150	0x3e624b31	0.22098996
151	0x3dce372f	0.10069119
152	0xbe90eb96	-0.28304738
153	0xbe40162e	-0.18758461
154	0x3ed2a333	0.41140136
155	0xbd64cdc9	-0.055860315
156	0xbe76d570	-0.24104857
157	0x3e5cc2d1	0.21558692
158	0xbe75c49b	-0.2400078
159	0xbea31f66	-0.31859893
160	0x3de5ccf9	0.11220736
161	0x3ecf51c0	0.40492058
162	0x3dec280b	0.11531075
163	0x3e0930c3	0.13397507
164	0xbe11d1b1	-0.14240147
165	0xbe4ddd0c	-0.20103854
166	0xbea173b3	-0.31533584
167	0xbe43a65d	-0.19106431
168	0x3e7f372e	0.24923393
169	0xbe5b77dd	-0.21432443
170	0x3ec9bee1	0.39403442
171	0xbe9456d4	-0.28972495
172	0x3ebf2e8e	0.37340206
173	0xbdf40506	-0.11915021
174	0xbec95022	-0.3931895
175	0x3ca7c760	0.020480812
176	0x3ec47027	0.38366815
177	0x3daa5c19	0.083183475
178	0x3e350daa	0.17680994
179	0x3d168366	0.036746405
180	0xbe46783c	-0.19381803
181	0xbe0e31e3	-0.13886218
182	0x3e1a8439	0.15089501
183	0x3e91f8d2	0.28510147
184	0x3ecfe38e	0.40603298
185	0x3eab5f9b	0.3347138
186	0x3ec326ee	0.38115638
187	0x3e9d63fa	0.3074034
188	0xbdf158ff	-0.11784553
189	0xbea805d7	-0.32816955
190	0xbe92ca91	-0.2867017
191	0x3d0dbad1	0.03460199
192	0xbe63720f	-0.22211479
193	0x3deef52f	0.11667859
194	0x3e8b5883	0.27215967
195	0xbd873c16	-0.06603257
196	0xbe002ca5	-0.1251703
197	0xbc67cea0	-0.014148384
198	0xbdeffc25	-0.11718015
199	0x3ca31080	0.019905329
200	0xbe8b277d	-0.27178565
201	0xbdfb6091	-0.12274278
202	0x3dabdca4	0.08391693
203	0x3e4907b8	0.1963185
204	0xbd8380c6	-0.06421046
205	0xbed2edbd	-0.41197005
206	0x3ddb6cfa	0.10714145
207	0xbed0beb9	-0.4077051
208	0xbd95f97b	-0.07322975
209	0xbe2a12c2	-0.16608718
210	0x3e935f82	0.28783804
211	0x3e581155	0.21100362
212	0x3d846fb1	0.06466616
213	0x3e22ad3c	0.15886396
214	0xbe3a9705	-0.18221672
215	0xb9dc5e0c	-0.0004203174
216	0xbe9ee30f	-0.31032607
217	0x3e6881b7	0.22705732
218	0xbed6663c	-0.41874874
219	0x3e8f8974	0.28034556
220	0xbd80958b	-0.06278523
221	0x3d87c826	0.06629972
222	0xbeacec52	-0.33774048
223	0xbe549b42	-0.20762351
224	0xbe91694c	-0.28400648
225	0x3eac9011	0.33703664
226	0xbe1a0e11	-0.15044428
227	0x3e0b689b	0.13614123
228	0xbe10f31a	-0.14155236
229	0xbe32a075	-0.17444022
230	0x3ea4f733	0.32219848
231	0x3daae0da	0.08343668
232	0x3edec605	0.43510452
233	0xbee05bda	-0.43820077
234	0x3e56e55b	0.2098593
235	0x3e16c150	0.1472218
236	0x3e11cd3e	0.1423845
237	0xbe47d608	-0.1951524
238	0xbea0455a	-0.3130291
239	0x3ea9c87a	0.33160764
240	0x3eed3cb7	0.46335384
241	0xbe0314ef	-0.12800954
242	0xbe12fbbf	-0.14353846
243	0x3d8a2950	0.06746161
244	0xbea389e9	-0.31941155
245	0x3e8c4104	0.27393353
246	0x3e952710	0.29131365
247	0xbec2c6d9	-0.38042334
248	0x3e8465bf	0.25858876
249	0x3e0f8030	0.14013743
250	0x3e14ed20	0.14543581
251	0x3d295882	0.041344173
252	0xbec20e75	-0.37901655
253	0xbe81f8ca	-0.25385123
254	0xbdf17b0f	-0.1179105
255	0x3e721616	0.23641238

sequential/dense_1/MatMul f4 [3, 32]
0	0x3e525f70	0.20544219
1	0x3d3fd203	0.046831142
2	0x3df211d7	0.11819809
3	0xbe2b2098	-0.16711652
4	0x3e6e3817	0.23263584
5	0xbeb4d79e	-0.35320753
6	0x3ddd7f49	0.10815293
7	0xbdd0c0d3	-0.10193028
8	0x3e6e3138	0.23260963
9	0xbdee7b6d	-0.11644635
10	0x3e190e0d	0.14946766
11	0xbecbeb57	-0.39827988
12	0xbdd2d0e4	-0.10293749
13	0xbe5bf854	-0.21481448
14	0xbd4c1dbb	-0.04983304
15	0x3e5fae3f	0.21843813
16	0x3de70fc6	0.112823054
17	0xbe59a7cc	-0.21255416
18	0xbee4f471	-0.44717744
19	0x3e95607b	0.2917517
20	0x3c5a11eb	0.013309936
21	0x3e8e482f	0.27789447
22	0xbea45784	-0.3209802
23	0xbcbce595	-0.023058692
24	0x3e775bca	0.24156108
25	0xbd776171	-0.06039566
26	0xbe86d073	-0.2633091
27	0xbd17e066	-0.037079237
28	0x3e12e633	0.14345627
29	0xbef7cffa	-0.4840086
30	0x3ebac8b9	0.36481264
31	0x3dcc2d90	0.09969628
32	0xbe775fdc	-0.24157661
33	0x3e7a6f07	0.24456416
34	0xbe85de1f	-0.26146027
35	0x3e997350	0.2997079
36	0x3ddf374c	0.10899219
37	0xbed1f5d5	-0.41007867
38	0x3e641e5e	0.22277209
39	0xbd38815a	-0.045045234
40	0x3d9457d9	0.07243318
41	0xbdbc2f5a	-0.09188719
42	0xbe6b1eda	-0.22960988
43	0xbebd9fec	-0.37036073
44	0x3d542b6f	0.051799234
45	0x3e330869	0.17483677
46	0xbe68272c	-0.22671193
47	0x3e948721	0.29009345
48	0x3e5e6361	0.21717598
49	0x3e812867	0.25226137
50	0x3e65a21d	0.22425123
51	0xbe63d739	-0.2225007
52	0x3e0cc1d0	0.13745809
53	0x3e817142	0.2528172
54	0xbe1bf1dc	-0.15228981
55	0x3e894a40	0.2681446
56	0x3e9e283e	0.30890077
57	0xbef41ffd	-0.47680655
58	0xbefb4daf	-0.49082705
59	0xbe37f122	-0.17963079
60	0xbe8bea80	-0.27327347
61	0xbce014a0	-0.027353585
62	0xbe7631e9	-0.24042477
63	0xbe3a478f	-0.1819136
64	0xbd24c39e	-0.040225618
65	0x3ea912dc	0.330222
66	0x3e12a839	0.14321984
67	0x3dea1160	0.11429095
68	0x3e965121	0.2935877
69	0x3e85d27c	0.2613715
70	0xbe45150a	-0.19246307
71	0xbea2dadc	-0.318076
72	0xbe54634f	-0.20741008
73	0x3ea926d1	0.33037427
74	0xbc826d6c	-0.015921317
75	0xbdf0d375	-0.11759082
76	0xbe283573	-0.1642664
77	0x3e740352	0.23829392
78	0x3da9838e	0.08277045
79	0xbe262ecc	-0.16228789
80	0x3d93c0cc	0.072145075
81	0x3eb3be4a	0.35106117
82	0x3ebac565	0.36478725
83	0xbe525131	-0.20538785
84	0x3eabef8f	0.33581206
85	0xbeabbf27	-0.33544275
86	0x3eb4b339	0.35292986
87	0xbe4c04ab	-0.19923656
88	0x3e18299a	0.1485962
89	0xbc317568	-0.0108312145
90	0xbe920b8d	-0.28524438
91	0x3cc8a999	0.024494933
92	0xbe8f5308	-0.27993035
93	0x3da1174d	0.078657724
94	0x3e1933ab	0.14961116
95	0x3bc60403	0.0060429587
